lstm_model.pth (torch, 45561 bytes, 5 tensors)

lstm.weight_ih_l0 f4 [200, 1]
00000000: 6af3 c53d 9770 ce3d fa04 043e 6d9d 40bd
00000010: b4a4 ff3d 50f8 7e3d 0507 3fbd b848 db3c
00000020: e2e6 233e 3103 883c b5f4 963d aefc e3bc
00000030: 0ad4 bc3d c141 2fbd a849 bfbd 6d4b bb3c
00000040: 3e41 0b3c 3b36 243e 2c0f 143e 81e3 c5bb
00000050: 3513 55bd 1090 843d ecdd 0d3d be86 a63b
00000060: ec7f c1bd 82f1 36bd 62bf c1bd 577e 913d
00000070: 8274 cb3d 7c50 da3d f05e 15bd 2acb 3eba
00000080: 330f 1abd 3f2a c0bc e9ef 00be 620a 5a3c
00000090: 0ccb 1cbd 2a2d 93bd 5641 e5bd df9f ddbd
000000a0: e46a 5abd 9a0a d73d 5e30 963d 6f9a 503d
000000b0: 629c 8bbd b8fb 19be 09f2 a53d 7dc1 9fbd
000000c0: c71e 693d 6f8b 81bd 6392 5e3d 688f 57bd
000000d0: c8c9 03be a63b 02bd bf4f bdbc 5ae1 913d
000000e0: 72a9 e53d d025 ecbc 7aa8 0bbd ac83 d53d
000000f0: 73b9 773b 4a8b 1d3e 6f0e c5bd 9ddb f63c
00000100: 29a9 75bc 8aac 5fbb bc47 56bd b80a 5dbc
00000110: 9b90 b3bd dbd1 073e 1a62 19bc 49c3 803d
00000120: 83cd 003e 3ae5 2fbd 5b7b 273d c428 c7bc
00000130: 4b1e fb3d 0707 843d b60a 0bbd 9d41 1dbd
00000140: e9e1 f13a f144 0f3e c795 e73d 12f1 f0bd
00000150: a6c8 abbd 5978 2fbc a578 e53c 0d7b fe3d
00000160: 0c64 183e 83c8 273c 32da 96bd 50bd 133e
00000170: 9bcb debd 98de 973c a5be 3c3c 00f2 0dbe
00000180: 1b32 003e 04ee 4e3d f2b6 43bd 9912 e3bd
00000190: a72c c0ba a129 23be 0548 7b3d 2e0a 17be
000001a0: 99fe c9bd 7b17 ef3d b0ec 4ebd d6f9 383d
000001b0: 6952 ab3d 1da7 893c 7606 e0bd 40e7 5abd
000001c0: 3a2a 1c3e 80a0 a73d fe91 903d 498c b23c
000001d0: 9079 e33d 5c5a 3abd 2a61 cc3d bc27 153d
000001e0: b854 e7bd fcca 9d3d 2240 cfbb 74ca f0bd
000001f0: beb6 0fbe e104 1c3d 99d1 79bd 1ebc bcbd
00000200: 1108 e7bd 689f 9dbc d431 173e 23a0 97bc
00000210: 066c e2bd beb5 3bbc 9d3b 843d 8d3e 06be
00000220: 6f0e 3cbd f9df 033c 2ec1 473d 0cd6 4f3d
00000230: 5482 043d e24c 5abd 52fe 9dbd 192d 20be
00000240: a563 233e 43d2 89bc 23e3 fd3d 1458 66bd
00000250: 3009 143d e907 d4bd 19c4 723d 4845 943c
00000260: b1d5 45bd a8c2 c9bd c8ac dfbd 4ba7 9f3d
00000270: ad86 803d 78f6 a23c 4d9a 8b3d d2c3 d4bd
00000280: a0c5 a33d 230b d23d 40ff 10be e9bc bebd
00000290: 82bb febc 3c15 b83d 26a0 cebd e88c c7bc
000002a0: fea7 353d b6cb 95bd 7a25 d83d a723 ecbd
000002b0: 6fc7 1ebe 5af4 ea3d d9ea 15be 0115 473d
000002c0: c57d 91bd ed58 a2bc 9ac1 a2bd dc74 9a3d
000002d0: cb6e 1cbd 7b78 86bd d3d0 6fbd 8b30 99bd
000002e0: 089c 51bb 7b62 9c3d 61ef 903d 3540 cb3d
000002f0: c6a4 71bd 356d a1bc 1603 713d db63 b43d
00000300: 6227 c4bc c160 e03d 1cdf e5bd 9afe 1dbe
00000310: ea70 073e 4908 da3d 9d26 a73d c8dc fb3d
0.09665568 0.100800686 0.12892523 -0.047025133 0.124825865 0.062248528 -0.046637554 0.026768073
0.16006044 0.016603084 0.07370893 -0.027830448 0.09220131 -0.042787317 -0.09340221 0.022863114
0.008499442 0.16036312 0.14458913 -0.0060390835 -0.05202027 0.0647279 0.03463547 0.0050819805
-0.09448227 -0.044663914 -0.094603315 0.071041755 0.099343315 0.106598824 -0.036467493 -0.00072781986
-0.03761215 -0.023457645 -0.12591518 0.0133081395 -0.038279578 -0.07186349 -0.111941025 -0.108215086
-0.053324595 0.10500069 0.07333444 0.05092853 -0.06816937 -0.1503743 0.08102805 -0.07800577
0.056914117 -0.06325423 0.054338824 -0.052626997 -0.12869942 -0.031795166 -0.023109315 0.071230605
0.1121396 -0.028826624 -0.03409622 0.10425505 0.0037799745 0.15385166 -0.096218936 0.030134017
-0.014993944 -0.003412994 -0.052314505 -0.013491325 -0.08767816 0.13263647 -0.009361768 0.06287248
0.12578396 -0.042943217 0.040889125 -0.02431143 0.12261637 0.06446653 -0.03394576 -0.03839265
0.0018454167 0.13991143 0.11307865 -0.117647305 -0.0838788 -0.010709845 0.02801163 0.12425814
0.14881915 0.010240677 -0.07365836 0.14427686 -0.108786784 0.018538758 0.011520063 -0.13861847
0.12519114 0.05051996 -0.047781892 -0.110875316 -0.0014661745 -0.15933849 0.06134798 -0.14749977
-0.09863014 0.116744004 -0.05051869 0.045160137 0.08365328 0.016803319 -0.10938732 -0.053443193
0.15250483 0.0818491 0.07059096 0.021795409 0.111071706 -0.04549633 0.0997947 0.036414847
-0.11295456 0.07704732 -0.006324784 -0.11757365 -0.14034554 0.03809059 -0.060990904 -0.09215568
-0.112808354 -0.01924105 0.14765102 -0.018508976 -0.1105576 -0.011456905 0.06456683 -0.13109799
-0.045912202 0.008049005 0.048768215 0.05074124 0.032350853 -0.053295977 -0.077145234 -0.15642203
0.1595598 -0.016823893 0.123968385 -0.05623634 0.036141574 -0.10353071 0.059269045 0.018099442
-0.048299495 -0.09851581 -0.10921627 0.077955805 0.06275687 0.019892916 0.0681654 -0.10388912
0.07996678 0.102560304 -0.1415987 -0.093133755 -0.03109527 0.08988425 -0.1008914 -0.024359182
0.044349663 -0.073142454 0.10554023 -0.11530238 -0.15505765 0.114723876 -0.14640369 0.048604015
-0.07104067 -0.019817794 -0.07947083 0.075418204 -0.038191598 -0.065659486 -0.05854876 -0.07479962
-0.003198387 0.07635971 0.07076908 0.09924356 -0.05899503 -0.019705394 0.058840834 0.088081084
-0.02394456 0.10955954 -0.11224195 -0.15429154 0.13226667 0.106461115 0.08161662 0.1229797

lstm.weight_hh_l0 f4 [200, 50]
00000000: 05e4 69bd 8cc3 2c3d 8b14 933d e659 19be
00000010: 7755 6dbd fa36 053c a0ef 1abe 56f9 adbc
00000020: d14f f63d 0e7a 22bb e520 113d 4119 bf3d
00000030: 4e25 2b3d 7c25 c43c dbea d53d 61eb 4a3d
00000040: 382f e9bd 192e 373d f638 64bd 0839 903c
00000050: 5644 eabd 2c77 f83d a695 aebd 8558 843d
00000060: dcdc c1bd 730a f4bc dc17 843d 4b4f d2bd
00000070: 840e 083e ee3e 4a3d 08de d8bc 2b63 5ebc
00000080: d21c d93d 65ea 963c 75f2 79bd 3f8f e0ba
00000090: fc1a 0dbe 113d 7d3c f840 d1bc 4cb2 fd3d
000000a0: a027 ed3c 5702 51bd 23fb b63d 564c 8abc
000000b0: 331c 783d b4c6 b23d c00d 103e 8fee 3c3c
000000c0: 4c2c 333d 78bd 38bd 83a5 1e3c a220 76bd
000000d0: 7c44 4d3d c895 293b 12af 4fbd 608f 6abd
000000e0: aa77 a3bc cc9e 773d f258 bcbd 51b6 7abd
000000f0: d3d4 6fbd 5ca6 4fbd 3156 983d 5b7d 413d
00000100: 1a9f 17bc 996d e1bd 90d4 8d3d ea77 d7bd
00000110: 18c6 1e3d 7c73 cabd 39bd ee3d 4ca8 e4bd
00000120: 99af 413d 60cc be3d c5bd 043e 410f 9ebd
00000130: 58f0 b93d 82c4 90bb 0f99 f13d 6ac2 92bc
00000140: 4173 f6bd f634 94bd f3ac bd3a b5a9 ab3d
00000150: 9df1 053e 66d6 883c 6b2e 0ebd 72cf 293d
00000160: 32c7 5bbc 8f54 143e e59b fc3d 35d0 243d
00000170: fec4 603c b9c6 9abd 107a e0bd 16a0 88bd
00000180: 72b6 d33c 0e83 973d f6a1 5c3d 7879 e1bd
00000190: 5550 353d 8893 1c3c 3be2 8bbd cecd 9dbd
000001a0: 1041 233d 97c7 fa3d ffa0 0d3e 993f e8bd
000001b0: f3d2 07be fa0d 463d d601 1e3d f1c6 b03d
000001c0: 27ed 093e 6c36 52bd 693a c6bd bdc1 f03d
000001d0: 621d b2bd b08f b9bc 568d c6bd 1c73 0b3e
000001e0: 9009 ecbd d466 f03d cc3b f33c b6f2 a2bd
000001f0: 1ea2 ac3d 6884 97bd 9bf5 34bd 68e3 2cbd
00000200: ef88 cdbc 80a7 95bd aa01 b8bd b10a bdbd
00000210: 3e44 9cbd 3592 933d 86f0 82bb 465b c6bd
00000220: c0c1 c8bd 8a07 e0bd 3482 103e 0dae cf3d
00000230: c75a 96bd be68 af3d b34a e23d c7fb cbbd
00000240: aa5b e1bd 0b90 023e 3f27 d0bd dfa3 a83d
00000250: dee5 0e3d fcab 92bb 53e2 b23d 164b 2c3d
00000260: 7214 31bd 33c1 2a3d 5734 06be 6141 02bd
00000270: 04cb c93d 80d7 fcbc 978c 083e e822 2c3b
00000280: 25fd dd3d fb1e 053e 65f8 cebd 921f 59bd
00000290: 7106 ce3c 0afd e3bc d34d ef3d 6aa4 cabd
000002a0: 1efa 043e ab9c 4abd c829 aebd 2674 e1bc
000002b0: 353f 30bb 4ad3 02be 3aa9 983d f050 03bc
000002c0: 2ac9 453d 3311 dbbd c09b 7a3d 2580 a73c
000002d0: f9d5 80bd d287 dd3d b391 0b3d ad03 e8bd
000002e0: 9ec8 18bd 6306 83bd d7fa b0bc 531b 0fbd
000002f0: a1ac 113e af47 7bbd 43be f13d 90f9 acbd
00000300: c992 e63c 06a5 17be 30d6 0a3e 9f4e 883d
00000310: 6ead f93d 8ef7 52bd 4dd0 843d 8dec b3bd
00000320: dbf4 cf3d 5afc d23a e852 ac3c 41d8 01bc
00000330: d468 4a3d c1d9 19be 6a79 a33c 64d3 023e
00000340: 0871 75bd d20b 063e 0754 a9bd 995b 0ebe
00000350: f52c bf3d 7f76 48bd 5255 89bc a0eb 14be
00000360: 594b cf3d 2e96 053e 676c ccbd a1d9 b7bd
00000370: f784 a23d c9d1 66bd bbab 93bd 0857 063c
00000380: ec92 6bbd cd3e 803d 7909 f6bd e20c 933d
00000390: 30d7 45bc 4a54 e73d 6b7b 9e3d 5d1b 18bd
000003a0: a1c3 253d d53d 033e 1e8d 10be 079e 1bbd
000003b0: 751c a23d 69f0 13bc 2feb b9bd c3db 40bd
000003c0: e00d 063e d675 7c3b daf1 58bc cc1e da3b
000003d0: cb16 c13d 00bc c33c b32b a7bd 3c3e 8b3d
000003e0: b15f cebd 581b cfbd 0b22 2fbd b1e1 05be
000003f0: 5fb4 fcbd e7c1 50bd d067 033e 9d6b 81bd
-0.057102222 0.042178676 0.07181653 -0.149757 -0.057942834 0.008130783 -0.15130472 -0.021237057
0.120269425 -0.0024791989 0.03543176 0.09330989 0.041783623 0.023943655 0.10445186 0.04954088
-0.113859594 0.044721697 -0.055718385 0.01760532 -0.11438815 0.12132105 -0.08524637 0.06462196
-0.09465954 -0.029790139 0.06449863 -0.1026903 0.13286787 0.04937642 -0.02647306 -0.013573448
0.106012 0.018422315 -0.06102224 -0.0017132534 -0.13779825 0.015456454 -0.025543675 0.12387523
0.028949559 -0.051027622 0.08934619 -0.016882103 0.060573768 0.08729306 0.14067745 0.011531486
0.043743417 -0.045102566 0.009683016 -0.060089715 0.05011414 0.002587663 -0.05070407 -0.05726564
-0.019954521 0.060454175 -0.091966525 -0.061209027 -0.058552574 -0.050695762 0.07438315 0.04723869
-0.009254241 -0.11007232 0.06925309 -0.10520919 0.038763136 -0.09885308 0.11657185 -0.111649126
0.047286604 0.09316325 0.12963016 -0.07717753 0.09079045 -0.004417957 0.11796772 -0.01791497
-0.12033702 -0.07236664 0.0014471099 0.083819784 0.1308045 0.016703796 -0.034712236 0.0414576
-0.013414191 0.14485382 0.12334422 0.040237624 0.013718842 -0.075574346 -0.109607816 -0.06671159
0.025843833 0.073980436 0.053865395 -0.110094965 0.044266064 0.009556659 -0.068302594 -0.0770527
0.03985697 0.122451 0.13830946 -0.11340255 -0.13264064 0.048353173 0.03857597 0.08631695
0.13469373 -0.051321432 -0.096791096 0.11755703 -0.086970106 -0.022651523 -0.096949264 0.1361813
-0.115252614 0.11738363 0.0296916 -0.0795645 0.08429359 -0.07398301 -0.04417954 -0.04220906
-0.02508971 -0.07307339 -0.089846924 -0.09230555 -0.07630204 0.07205621 -0.003995958 -0.09685378
-0.0980258 -0.10938938 0.14112169 0.101406194 -0.07341533 0.085649 0.11049404 -0.09960132
-0.11003812 0.1275026 -0.101637356 0.08234381 0.034887187 -0.0044760685 0.08734574 0.042063795
-0.04323239 0.041688155 -0.13105904 -0.03180063 0.09853175 -0.030864477 0.13334881 0.0026265923
0.10839299 0.130001 -0.10105971 -0.053008623 0.025149556 -0.02783062 0.11684766 -0.09894641
0.12986037 -0.049465816 -0.08504063 -0.027521204 -0.0026893143 -0.12775913 0.074541524 -0.0080149025
0.048287548 -0.1069664 0.06118369 0.020446846 -0.06290812 0.10816921 0.034074496 -0.11328826
-0.0373007 -0.063977025 -0.021603985 -0.034938168 0.14226009 -0.06134766 0.11803868 -0.08446038
0.028146164 -0.14809045 0.13558269 0.06655621 0.12191282 -0.051505618 0.06485043 -0.08785353
0.10154124 0.0016096935 0.021035627 -0.007925094 0.04941638 -0.15024473 0.019955356 0.12775952
-0.059922248 0.13090447 -0.0826798 -0.13902129 0.09334747 -0.04894113 -0.016764317 -0.14543009
0.10121793 0.1304557 -0.099816136 -0.08977056 0.07935517 -0.05635241 -0.07210489 0.008199461
-0.057513162 0.06261978 -0.120135255 0.071801916 -0.0120752305 0.11295374 0.07738384 -0.03713547
0.04046977 0.12816556 -0.14116332 -0.037992503 0.07915584 -0.009029486 -0.09078061 -0.04708458
0.1309123 0.0038522384 -0.013241256 0.0066565033 0.094281755 0.023893356 -0.08162632 0.0679898
-0.100768454 -0.10112637 -0.042757075 -0.13074376 -0.123390906 -0.05096617 0.1283257 -0.06319354

lstm.bias_ih_l0 f4 [200]
00000000: 204d 2ebb 3625 b13d a285 f23b 2185 eb3b
00000010: 8dfb 963d 3a1a 633d 5c7c a93c ffcf a6bd
00000020: 6cbb 4c3d 773f bd3d ec20 45bb 4a2d 1e3e
00000030: aa2c 6fbd 866a e1bc 48c3 c03d 5152 1a3e
00000040: c2a8 6abc 5c45 b4bc 7ab0 143c d3df a13d
00000050: 2ca6 983d cd01 3e3d b4ab 003e 9081 b4bd
00000060: deae f0bc 6e54 d83d e319 003e c02b 24bc
00000070: 7837 09be 787a e93d 1b1a b8bd ce7d 7abd
00000080: df59 c93c 8d84 e4bd 215d 633d 54d6 de3d
00000090: ee8f d13d dd4b 01be 3a82 203d bc3e 1ebd
000000a0: f715 98bd 8eb5 f93d 7b2b 37bd d302 1cbc
000000b0: 45ce e53c f5c9 07be 0bce f5bc 3265 fb3d
000000c0: 7b7b 183e d95f 2dbd d43d 223e b79b 8fbd
000000d0: e6d6 16bd 4f3c e63d 0a71 043e 99de 93bd
000000e0: ca1b 2abc d88a 453d 93d1 873b cb6d 903c
000000f0: d72a 4e3d 62d5 153e 0d0e ab3c e663 61bd
00000100: d8d1 c03d 8dcf f73d 9199 01be 3298 ccbd
00000110: 9a63 c0bd 6e40 7e3d 68db 373c 10c6 783d
00000120: 7b2d e13c ba16 bd3d 60b9 00be b726 7e3d
00000130: 4800 0f3e 4622 b4bd cefb 95ba 2e24 253d
00000140: 63ea 27bd eb1f 453d ad7b bf3d 2d64 a3bd
00000150: dfdb f93d 608d 703d aa3f cbbc 2f74 3e3d
00000160: 1127 db3d 3708 c3bd 9f99 913c 0ce1 a83d
00000170: d4c7 f33d 2459 77bd 5030 de3d a007 18be
00000180: 550b b1bd 5150 103e 459f aa3c 91e1 f2bd
00000190: 440d d93d a61b e6bd ae47 92bd 62dd b9bb
000001a0: 003b 023e 7d03 8b3d 9538 0e3d e6db 0bbe
000001b0: 7aa9 d83d 4f61 c7bd 74a0 e73d 044f 033e
000001c0: 2d5a 9fbd df53 ec3d ecac 253b 14a3 223e
000001d0: af7f b83d a0c5 0c3e 2081 d53d 176b adbd
000001e0: 566b 5ebd 397d 583d e3a2 f33d 6c41 b0bd
000001f0: c606 7b3d a839 fe3c c9db 1dbd 725b 1f3e
00000200: 0f41 c73d 8db0 10be cae1 193e 7504 1cbe
00000210: 888e 773d c232 013e 1f11 9e3d 046e 99bd
00000220: f97d 17be 99e4 9b3d 0ac8 aa3d 0e42 473d
00000230: e8d7 1d3e 1f78 b83c 827f bdbc 2437 12be
00000240: 57b7 56bd fc74 0b3d 50a0 f93d 9186 8cbd
00000250: 6497 d13d 2aae 003d d31e c7bd d054 99bd
00000260: 5b2c 7cbd 24a0 a6bc 13f2 633d c0ca 193e
00000270: 1459 fb3d d13d babc b604 5c3d 2f08 90bc
00000280: 78e2 95bd 02d6 ca3d dc0c 2b3d 477b b23a
00000290: 98e3 253e 3483 dfbd 8514 243d 50ac 31bb
000002a0: 6c82 1b3e 4fe6 153e 0a07 573d dfd6 133e
000002b0: 92bc 813d 9bfd d33b c431 03be 6a8f b7bd
000002c0: d2cd 1a3d e308 f8bd c708 eebb 6156 b23d
000002d0: 07d8 9f3d a221 8d3d 5740 ff3d 702c 153e
000002e0: 9c71 16be c1d1 6ebd bf58 e6bd 884a c93d
000002f0: e9c0 163e ed53 3b3d 0dea 0b3e 2479 8abc
00000300: 1024 fa3d 49d9 a5bd b3a7 55bd daf7 e4bd
00000310: 8ef2 103e 1adf 93bd 3893 c0bd 34db 583d
-0.0026596263 0.086496755 0.007401184 0.007187501 0.07372198 0.055444933 0.020689182 -0.08145141
0.049983427 0.092406206 -0.0030079437 0.15446964 -0.058392204 -0.027516615 0.09412247 0.15070464
-0.014322462 -0.02200573 0.009075278 0.07904019 0.0745357 0.046388436 0.125655 -0.088137746
-0.029380258 0.10562979 0.12509875 -0.010020196 -0.13400066 0.11400312 -0.08989354 -0.061155133
0.024578987 -0.111580946 0.055508737 0.108807236 0.102325305 -0.12626596 0.039186694 -0.038634047
-0.074260645 0.12192832 -0.0447192 -0.009522158 0.028052459 -0.13260634 -0.030005476 0.12275161
0.14890854 -0.042327736 0.15843898 -0.07012122 -0.036826037 0.11241972 0.12933746 -0.072201915
-0.010382602 0.048228115 0.0041448562 0.017630478 0.050333824 0.1463218 0.020880723 -0.05502691
0.094150245 0.12100134 -0.12656237 -0.099899665 -0.093939975 0.062073164 0.011221744 0.060735762
0.027487507 0.092328504 -0.12570715 0.06204864 0.13964951 -0.087956 -0.0011442841 0.040317707
-0.040995013 0.048126142 0.09349761 -0.079780914 0.1220014 0.058728576 -0.02481063 0.04649752
0.10700811 -0.09523051 0.017773448 0.08246049 0.119033486 -0.060387745 0.10849059 -0.14846659
-0.086447395 0.14093138 0.020827899 -0.1185943 0.10598233 -0.11235742 -0.07142578 -0.005672143
0.12717819 0.06787775 0.03472193 -0.13658103 0.105792 -0.09735357 0.11309901 0.12823111
-0.077808715 0.11539435 0.0025280071 0.15882522 0.09008729 0.13747263 0.10425019 -0.084676914
-0.054301582 0.052853797 0.118963026 -0.08606228 0.061285757 0.031033352 -0.03853968 0.15562227
0.09729206 -0.14129849 0.15027538 -0.15236075 0.060438663 0.12617019 0.07718109 -0.07491687
-0.14794149 0.07611961 0.08338936 0.04864698 0.15414393 0.022518216 -0.02313209 -0.14278847
-0.05242094 0.034047112 0.1218878 -0.06861604 0.102339536 0.031416096 -0.09722676 -0.0748688
-0.06156574 -0.020340033 0.05565078 0.15018749 0.1227285 -0.022734554 0.05371543 -0.017582027
-0.07318586 0.099041 0.04176031 0.0013617062 0.16200101 -0.10913697 0.04005863 -0.0027110763
0.15186471 0.14638637 0.052496947 0.14437436 0.06334795 0.006469441 -0.12811953 -0.08962901
0.03779394 -0.1211107 -0.00726423 0.08707882 0.07804876 0.068911806 0.12463444 0.14567733
-0.14691776 -0.058305506 -0.11247396 0.09828669 0.14722027 0.045734335 0.13663502 -0.016903467
0.122139096 -0.080980845 -0.052161884 -0.111800864 0.14155027 -0.072202876 -0.0940308 0.052943423

lstm.bias_hh_l0 f4 [200]
00000000: 3bcf de3d a8ef 10bc b395 173d 6d63 80bd
00000010: 9dfd fbbc 3eba 7f3d 5c6b 09be e823 d5bb
00000020: c000 d33d fad2 15be 8384 a4bd 6f8c a4bd
00000030: abac bebd c206 613d 78d9 e7bc b3fd dcbd
00000040: 3b8e 12be 7207 0ebd 793f d1bd 3b74 1e3e
00000050: a7fc 2a3d cd8f ab3d bd57 36bd 4291 1b3c
00000060: 7458 863c 0d5e 06bd e7d6 4c3d ab04 673d
00000070: 686a 923b 84c3 043e 5604 513d 2d8e ac3d
00000080: 9ec4 17be 2827 b13d 0430 04be 7ba9 f33d
00000090: 2189 f4bc 89cd 2d3d dfe0 583d 9282 a63d
000000a0: 6170 2bbd 0203 7eba 2bbd bf3d a932 a03d
000000b0: dcf0 1ebd e498 883d 71b4 b5bd 0a6c 143c
000000c0: 342f c03d ff74 16bd a896 b13d 9254 c53c
000000d0: d2c7 173d e250 143d 0b48 bf3d 686a 523d
000000e0: bffe dbbc 937f e83d 8445 6bbc d4b2 ae3d
000000f0: 36df 533d c073 52bd be4d 71bd 96a9 913d
00000100: 8cf7 1fbd 8ec7 b53d 1270 1dbd c894 16bb
00000110: e899 193e e800 4f3d 5cc7 f33d 1c3b 0cbb
00000120: 2500 94bc d090 f0bd 151c 283d 434b 2fbd
00000130: 6138 aabd fc47 0ebc ed8e cfbd 5598 e03c
00000140: 163d 803d e638 d2bd d210 09be d9c8 d43c
00000150: bfa0 3fbd 0398 35bd 559d ebbd b00a 98bb
00000160: 1312 013e 334e dabd dbaa e4bc 7c66 8ebc
00000170: fd86 94bc 27f2 dfbd da1a a1bd 58c2 cdbb
00000180: 4757 933d 2e88 10bb 2452 393d 8052 99bd
00000190: 445d c63d 58d5 9a3d d4f2 9b3b a314 36bc
000001a0: e698 123d 20de 4b3d 8eef b8bd 13ee 7f3d
000001b0: e0d5 86bc de83 cf3d 9ab5 a5ba 3b78 183e
000001c0: c288 ecbc c81f 2f3d d569 093e f305 083e
000001d0: 948e 47bd 7846 ea3c d7ac ec3d 1785 043e
000001e0: 6e1e b13d 2e84 0d3e c1bf 0ebc 1150 f53d
000001f0: 4d46 c73d b30b 3bbd 9dd8 ebbc 947b 863c
00000200: cc45 8dbd 5c80 b13d 5eab cd3c f03f b13d
00000210: 2e66 34bd 0729 033d 2bd9 b1bd 650b 16be
00000220: 2177 d43d bee7 06be 1394 b93c 8ccd 303d
00000230: 8828 6fba 7408 ff3a 2926 873d 6ec0 a93d
00000240: 70b6 193e 64be 9c3d 4552 65bd d8d5 acbc
00000250: 95b3 3c3d 5181 7a3d cca4 a93d 5f08 7fbc
00000260: fcb2 d73d da50 333d a7c2 493d 38a4 8f3d
00000270: fbda ec3c f06e 213e 8232 ff3c e471 f1bd
00000280: 6e35 c9bd a96e cebd 982f aa3d 266c 12bd
00000290: 95c7 bc3d 15b2 33bd 46ad 03be 38f2 7e3c
000002a0: 90c0 173e d038 8dbd 0a13 11be ea5b a83b
000002b0: 4ecb 123d 1c06 48bd 9ad1 813d 065c 9e3d
000002c0: 6fc3 593d 64dd debc 4bcc 8fbd bf49 a13d
000002d0: 8ff9 e33d c91d 723d 0a42 d3ba ca39 eabb
000002e0: 2fd1 8f3d 7246 243e cabc aebd 5484 d43d
000002f0: 7c87 213e f8a5 0abe 2b87 b5bd 1f4c 6a3d
00000300: 10c3 d1bd 2839 ff3d e0e8 80bd 91c4 ffbd
00000310: 6e34 b33d 8852 1e3d 8179 853c fdf2 f1bd
0.1087937 -0.008846201 0.037008 -0.06268964 -0.03076058 0.062433474 -0.1341986 -0.0065045245
0.103028774 -0.14631262 -0.08033087 -0.08034598 -0.093102776 0.054938085 -0.02830194 -0.10790577
-0.14312069 -0.03467507 -0.102171846 0.15474026 0.041744854 0.08377037 -0.044517267 0.009495081
0.0163996 -0.032804538 0.050009634 0.056400936 0.004468251 0.12965208 0.051029526 0.084255554
-0.14821097 0.086500466 -0.12908942 0.1189756 -0.029850544 0.04243234 0.05294883 0.08130373
-0.04185522 -0.0009689779 0.09362253 0.07822163 -0.03880392 0.066697866 -0.08872307 0.009058962
0.09384003 -0.03673267 0.086713135 0.024088178 0.037055798 0.03620995 0.09339913 0.05137101
-0.02685487 0.11352458 -0.014359836 0.085302025 0.051726542 -0.05137992 -0.05891203 0.07112424
-0.03905444 0.08875953 -0.038436957 -0.0022976864 0.15000117 0.050537974 0.11903259 -0.0021397537
-0.018066475 -0.11746371 0.041042406 -0.042796385 -0.08311535 -0.008684155 -0.10134683 0.027416388
0.06261651 -0.10264759 -0.13385323 0.025974678 -0.04678416 -0.044334423 -0.11504618 -0.004639946
0.12604551 -0.106594466 -0.027913501 -0.017382853 -0.018130774 -0.10934859 -0.0786645 -0.006279271
0.07194381 -0.0022053826 0.04524435 -0.07486439 0.09685758 0.07560223 0.004759172 -0.011113319
0.035790347 0.04977238 -0.090300664 0.062482905 -0.016459405 0.101325735 -0.0012642622 0.14889614
-0.028873805 0.04275492 0.13419278 0.1328352 -0.048719957 0.028598055 0.11556404 0.12941395
0.08648382 0.13819954 -0.00871271 0.11978162 0.09730206 -0.045665454 -0.028789813 0.016416349
-0.06898078 0.08667061 0.025106128 0.08654773 -0.04404276 0.03202155 -0.08684 -0.14652784
0.103742845 -0.1317434 0.022653615 0.043164775 -0.0009123166 0.0019457475 0.06599075 0.08288656
0.15011 0.07653502 -0.05598666 -0.021098062 0.0460697 0.061158482 0.08283386 -0.015565961
0.105321854 0.043778278 0.0492579 0.07013744 0.028913012 0.15764976 0.031152014 -0.11789301
-0.09824644 -0.100797005 0.08309859 -0.03574767 0.09217755 -0.043871004 -0.12859067 0.015560679
0.1481955 -0.06895602 -0.14167419 0.00513791 0.035838418 -0.04883395 0.063388065 0.07732396
0.053164896 -0.027205177 -0.07021388 0.07875394 0.11131584 0.059110437 -0.0016117704 -0.0071480023
0.070223205 0.16042498 -0.085321024 0.10376802 0.1577434 -0.13539875 -0.08863672 0.0572015
-0.10242283 0.124620736 -0.062944174 -0.12488664 0.087502345 0.038652927 0.01629329 -0.118139245

fc.weight f4 [1, 50]
00000000: 7f25 0c3c 035e e43b b276 a0bd a47d fdbc
00000010: f9f6 d53b 1287 2ebc c98a 983d 4543 77bd
00000020: 422c c93d e53e 443d 1fdf 48bd 97cb 0e3e
00000030: 4dfe 0f3d c53a e1ba efbc c43d 453f fe3d
00000040: 04f7 a1bc 08c8 193e be67 cc3d 002e 763d
00000050: 8404 e03d ac59 0d3e 08a9 a4bd 735a bf3d
00000060: f1b2 aabd 0a57 5d3d 6dd9 bdbd bfde f33d
00000070: 86e4 cdbd f94b 11be e83c e13d 61da b3bd
00000080: 2321 663d 07f2 d53d 172a a2bc b945 b3bd
00000090: f92c 02be 128f a23c df49 1c3e c439 f0bd
000000a0: 00f3 1d3e 7d73 e8bd ccf3 acbd 8e6e 69bd
000000b0: f696 5c3d e944 aabc a83e de3d 8fbb 81bd
000000c0: 2a06 04bc 873b 26bc
0.008553862 0.006969215 -0.07835139 -0.0309437 0.0065296856 -0.01065232 0.07448346 -0.060366888
0.09822895 0.047911543 -0.04904091 0.13944851 0.03515463 -0.0017183652 0.09606349 0.124144115
-0.019771107 0.15017712 0.09980725 0.060102463 0.10938361 0.13803738 -0.08040053 0.09343424
-0.083349116 0.054038085 -0.09269986 0.1190772 -0.10053353 -0.14189138 0.10997945 -0.08781887
0.056183945 0.10446554 -0.01979546 -0.08753533 -0.12712468 0.019843612 0.15262555 -0.11729768
0.15424728 -0.11350153 -0.08444938 -0.0569902 0.053854905 -0.020784812 0.108517945 -0.06334602
-0.00805811 -0.010146028
