nbeats_model.pth (torch, 85457 bytes, 5 tensors)

fc1.weight f4 [128, 30]
00000000: d3ab 23bd 8f70 26bb 62fc fe3d 3daa a83d
00000010: d3f5 cd3d 8b21 043e 4483 2abe da49 0dbe
00000020: a76f e2bb 71ba 103d 6602 db3d 9041 573d
00000030: 8387 cc3d 3a9f 40bd 1778 8bbd 5c31 4d3d
00000040: 5e74 a73d 9ff7 1e3e 9026 45bd 634f a0bd
00000050: 720b 37be 6695 03be c592 293e 309a 2fbe
00000060: 41e3 e9bd a6dc 77bd d8da 993d 955a 68bd
00000070: c104 51bc ee9d 24be de55 283e f2bf 143e
00000080: 0b47 f23d ee62 043e e056 1abe fa8d c9bd
00000090: d233 2a3d ca68 303b c61d 2ebd 4996 2a3e
000000a0: 9519 143e 06cd 1abe e6fd cebd 82e4 2abe
000000b0: 2272 a53c 7eb7 193e 4131 c33d b583 913d
000000c0: dcbb 24be 330e 9abd e517 13bc 230f 38be
000000d0: b04d 49bd 0c71 2bbe bb4c e63d f7f9 633d
000000e0: 5c08 b6bd 37ba 26be 522d fb3c 43e3 e4bd
000000f0: 97e2 bf3d bc96 1b3e 3d20 c83d ae3c 7e3d
00000100: cc68 223e 11e6 393e beb3 8bbc 76b2 9cbd
00000110: 5beb 8abd c3a4 0a3e b024 8c3c 3a71 d53d
00000120: a9e8 1e3e 7a32 09be 8ddf c13d 3a07 a9bc
00000130: 87a2 373e 2098 a33d f646 33bd 8483 ff3d
00000140: 56cb bf3a 6833 6b3c 36da 303d 98a9 ef3d
00000150: 6158 b7bc e433 c93d c7ea afbd d42a e1bd
00000160: b861 5dbc 64dc 0f3e 917b 27be 669c 25be
00000170: 425e ecbd c936 36be d9bf 09be 9858 09bd
00000180: 947e fdb9 45cb 27bd 9eae 813d d665 fabd
00000190: 3fcb b4bd 27d8 a8bd 9154 dc3d ab99 ea3d
000001a0: e0f8 afbc d408 a13b 0add 98ba 6f93 c13d
000001b0: 9a20 e33d e1ae 823d 5c34 e93d dcb4 173e
000001c0: d6f2 22be b090 7f3d f25d 0abd d718 943d
000001d0: b568 1b3e 1ce1 7d3d 6af7 9fbd c8d1 5d3d
000001e0: ea42 d1bd 05fd 3f3e 9ee6 5cbd 173b a23c
000001f0: e73a a43d e9c9 253d ea3b b6bd 4c53 0dbe
00000200: 208f 583c d7cc bc3d 8131 7dbd 7adf a43d
00000210: 28a8 25be f046 0f3e 3ed2 003e 70d5 b43c
00000220: fe77 053e e68b 313e cce1 2bbd 6953 5abd
00000230: eff7 31bd a6ec f6bd d726 1cbe f469 05be
00000240: f541 fb3d 81b5 0bbe 1f31 b2bd 64b2 f2bd
00000250: 5ca5 1fbe ab64 3d3e 5ed8 8dbd 34dc f0bc
00000260: 2050 773d 558b 92bd 4574 173d 039f 18bd
00000270: 8e11 143e 4dc5 a9bd bc47 e8bc a789 d93d
00000280: 0bec 053e e57c 02bd 8afe 213e dbe6 1c3d
00000290: 2e1f 46bd 9f99 013d f8d9 033d f6b2 e5b8
000002a0: 4e22 1f3e afd3 d0bc 5c08 263d 16fa bc3d
000002b0: 8c0a 60bd e2da d2bc 6e56 13be c00f 35be
000002c0: 9a26 19bd 0c61 363d 1add 1bbd 4378 cb3d
000002d0: e00c 02be 19cf 263c b113 c43d 3063 0e3e
000002e0: 57e2 953d 78d2 c03d 3222 fdbc 9098 b0bc
000002f0: 0317 a83d 01ce 8b3d d9d2 33be 5ec5 e0bd
00000300: 8f1c a13c 711f 27be 5339 2fbe 17b2 42bd
00000310: 9d59 fbbd 1d8a 33be d31d ac3d 8d3d 7ebd
00000320: 6cb9 03be 3fc0 60bc 7f29 eabd 1019 373e
00000330: f67b 0b3e 3df4 86bd 5978 a5bd 6356 183e
00000340: a376 e43c 4740 1f3e 28ff f7bd 95cd 20be
00000350: 2a56 a93d 24a8 83bd 13c4 2abe 2c94 a13d
00000360: eb51 163e 6043 debd 7e1c fd3d 6796 0a3e
00000370: bf43 01be 7251 413e 5d48 07be 8c10 2a3e
00000380: 4ac9 e83d 9264 d0bd 2cdc 463d efc2 a1bc
00000390: d13a c1bd a116 14be b5ad cc3d dd00 debb
000003a0: 047a 82bd a975 2cbe ae53 06be de4a a4bc
000003b0: 8f9a ac3d 4ea8 e1bd a485 243e 7869 9a3d
000003c0: 5b50 f93d f3b8 923d 6bfe c0bd dadf babc
000003d0: 06a9 863c 82f3 c93d 85f3 26be f407 8cbb
000003e0: 5369 39bd e694 1f3e 44ee 3f3e d94e 06bc
000003f0: de14 c8bd d453 c13c c50c e6bc 58c6 403e
-0.039958786 -0.002539668 0.12450482 0.082355954 0.10056653 0.1290342 -0.16651636 -0.13797703
-0.0069102827 0.035334054 0.10693817 0.05255276 0.09986784 -0.04702685 -0.06810015 0.0500959
0.08176492 0.15524147 -0.04813248 -0.07827642 -0.1787546 -0.1284996 0.16559894 -0.17148662
-0.11420298 -0.06051316 0.07512444 -0.05672701 -0.012757481 -0.1607587 0.16439006 0.14526346
0.118299566 0.12928364 -0.15072203 -0.09841533 0.041553326 0.0026917928 -0.042508863 0.16658892
0.14462884 -0.15117273 -0.10107021 -0.16688731 0.020196024 0.15011403 0.09530879 0.07105199
-0.16087288 -0.075222395 -0.008977865 -0.17974524 -0.049146354 -0.16742343 0.11245104 0.055658307
-0.08888313 -0.16281973 0.030661259 -0.11176159 0.093693905 0.1519422 0.09771774 0.062069587
0.1586029 0.1815417 -0.017053481 -0.07651226 -0.06783172 0.13539414 0.017107338 0.10421987
0.1551844 -0.13398162 0.09466467 -0.020633329 0.17933093 0.07988 -0.043768845 0.124762565
0.0014632742 0.014355518 0.043176852 0.11702269 -0.02238101 0.098243505 -0.08589702 -0.10994497
-0.0135120675 0.14048916 -0.1635573 -0.16172943 -0.11541416 -0.17794336 -0.1345209 -0.033531755
-0.00048350228 -0.040965337 0.06332134 -0.12226455 -0.088278286 -0.08244353 0.10758317 0.11455091
-0.021480978 0.0049143825 -0.0011662554 0.09451949 0.11090203 0.06381012 0.1138694 0.14815086
-0.15912947 0.062393844 -0.033781 0.072313 0.15176661 0.06198226 -0.07810862 0.05415514
-0.10217841 0.18748863 -0.05393087 0.019803567 0.08019047 0.04047576 -0.088981465 -0.13801306
0.013217717 0.092187576 -0.06181479 0.08050437 -0.16177428 0.13991904 0.12580201 0.022074431
0.13034055 0.17338523 -0.041963384 -0.053302202 -0.04344934 -0.12056856 -0.15249191 -0.13028699
0.1226844 -0.13643457 -0.08700775 -0.118504316 -0.15590423 0.18495433 -0.069260344 -0.029401876
0.060379148 -0.07155482 0.036976118 -0.03726102 0.14459822 -0.08289585 -0.028354518 0.10621958
0.13078324 -0.03185739 0.15819755 0.0383061 -0.04836958 0.031640645 0.032190293 -0.00010952905
0.1554043 -0.025491564 0.040535316 0.092273876 -0.05469756 -0.025739137 -0.14388439 -0.1768179
-0.03739033 0.044526145 -0.038052656 0.099350475 -0.12700224 0.010181212 0.09574068 0.13905025
0.073185615 0.09415144 -0.030900095 -0.021557122 0.08207514 0.068264015 -0.17560901 -0.10975145
0.019666938 -0.16320588 -0.17111711 -0.04753312 -0.12272952 -0.17533155 0.08404126 -0.06207042
-0.12863702 -0.01371771 -0.11433696 0.17880654 0.13621506 -0.065895535 -0.08079595 0.14876704
0.027888602 0.15551864 -0.12109214 -0.15703423 0.082683876 -0.06428555 -0.16676359 0.0788959
0.14679687 -0.108526945 0.1235895 0.13533936 -0.126235 0.18878725 -0.13211198 0.16607875
0.11366518 -0.10175432 0.048549816 -0.019746272 -0.094350465 -0.14461757 0.099940695 -0.0067750053
-0.06370929 -0.16841759 -0.13117859 -0.02005523 0.08427917 -0.1101843 0.16066605 0.07539648
0.1217353 0.071641825 -0.094235264 -0.022811819 0.016438019 0.098608986 -0.16303833 -0.004273409
-0.04526646 0.15584144 0.18743235 -0.00819751 -0.09769605 0.023599543 -0.02808226 0.18825662

fc1.bias f4 [128]
00000000: 7a82 ebbc ffe5 0ebd b326 5a3d 7a54 9a3d
00000010: 4165 a53d a9be c6bd a96f ffbd f942 0a3e
00000020: 3f94 97bd aea2 d9bd 7438 aebc f27b 2a3e
00000030: 2775 c8bd 778e 473e accd 14be 2ffa 223c
00000040: 74f1 533d 7610 5cbd 73d9 133e 19e8 233d
00000050: 89fd e33d 1e1b 213e ca92 39be b618 393d
00000060: 83f0 bd3d 7a03 16bd dd46 963d 3006 e33c
00000070: 5c25 323e 9815 e53d 2a43 0dbe 2001 0a3e
00000080: f617 2ebe 42a6 303d 0213 babc ef10 193e
00000090: 9166 3d3e cd44 8c3d 146a ad3d 99ba d43d
000000a0: 5c27 25be 0f4c b9bd b4b5 f2bd 0387 04be
000000b0: 5e17 da3c b180 e2bd 9bce 173e c623 453d
000000c0: 16c9 edbd f5a8 75bd dfb9 2e3e 07a4 163e
000000d0: 2970 6f3c c473 d73d f060 f7bc b6d2 013d
000000e0: 8cd9 253e f346 9ebd 6bdc 363e 3400 c23d
000000f0: 6fff 10bc 1b6e 243d 75ac e03c 7fda 69bd
00000100: 5142 e23d 44b7 043d 056d b63d 4c9b 0dbe
00000110: 0b29 9d3d a4c2 fd3d e100 9cbc 700a 96bc
00000120: f3e6 02be 02cb e73d f1b7 cb3a 1299 833d
00000130: cbe2 febc e9c7 a33d 5577 153e 2441 fbbd
00000140: d80e f23c 52b3 043e c5f7 a53d e435 213e
00000150: 1b1a 373d d036 133e 7303 9a3d c8ce 333e
00000160: 85c4 2d3e e5f8 ac3d b892 dd3d 3416 9d3d
00000170: 3f65 2cbe 5cd6 c63c 1af1 48bb fa2c 883d
00000180: acfb ffbc bd92 ed3d 3e6d 523d 765c 0a3e
00000190: 08ab 0c3e 837c b03d ff6a 08bd 2470 313d
000001a0: 1644 ccbd 5df1 fabb e7fb e0bd 3f28 cc3c
000001b0: 3f54 04be fdef c33d 78f6 2d3e 1bc9 3f3e
000001c0: 5431 f73d eb94 563d 5f37 623d 7e37 f3bc
000001d0: f478 afbd c458 ee3c cf5f 03be 5dbf ff3d
000001e0: 53c0 283e afbb 413d 5ad7 263e a9fb ef3d
000001f0: 139b 36be 7cd8 5dbd d307 47ba ffa0 5ebc
-0.02874874 -0.03488731 0.053259563 0.07535644 0.08075953 -0.09704334 -0.12472469 0.1350211
-0.074013226 -0.10626732 -0.021267153 0.16648844 -0.0978797 0.1948794 -0.14531583 0.009947344
0.05174394 -0.053726636 0.14438419 0.040016267 0.11132342 0.15733 -0.18122402 0.04518958
0.092743896 -0.03662441 0.07337735 0.027712911 0.17397064 0.11185759 -0.13795152 0.13476992
-0.17001328 0.043127306 -0.022714142 0.14947866 0.18496157 0.0684906 0.084674984 0.10387153
-0.16128296 -0.0904771 -0.11851063 -0.12942128 0.02662247 -0.11059702 0.14824907 0.04812982
-0.1161062 -0.059975583 0.17063092 0.14711009 0.014614143 0.105201274 -0.03019759 0.03169509
0.16196269 -0.07728376 0.1785752 0.09472695 -0.008849963 0.040144067 0.027425984 -0.05709314
0.11047805 0.03240134 0.089075126 -0.13828772 0.07673844 0.123906404 -0.019043388 -0.018315524
-0.12783413 0.113180175 0.001554249 0.0642568 -0.031114003 0.07997114 0.14596303 -0.12268284
0.029548094 0.1295903 0.08103899 0.15743214 0.04470263 0.14376378 0.07520189 0.1755935
0.16969498 0.0844591 0.10819 0.076702505 -0.16835497 0.024272136 -0.0030661286 0.066492036
-0.031247936 0.11600254 0.051373713 0.13511834 0.13737118 0.08617499 -0.033305164 0.043319836
-0.09973924 -0.0076581673 -0.109855466 0.024921535 -0.12922762 0.095672585 0.16988552 0.1872906
0.120699555 0.052388113 0.055228587 -0.029689547 -0.08567992 0.029095061 -0.12829517 0.124876715
0.16479616 0.04729813 0.16293088 0.11717922 -0.17832594 -0.054161534 -0.00075924135 -0.013588189

fc2.weight f4 [128, 128]
00000000: a7ab 8dbd 8fff 18bd 364f a6bd 0bcf 30bd
00000010: 1349 773d e531 dbbb 1b82 d3bc a967 bb3d
00000020: 39d0 a8bc 7371 5c3d 89e1 903d 96d6 383d
00000030: 0867 aa3d 247f 10bd 751a a9bd 61b8 8d3d
00000040: 215e 39bd 697d a93d 186b 9f3d 30b7 a63a
00000050: a8e7 c23c 5e5c 453d 1389 32bd b09a 78bc
00000060: fd8e bf3c b11e c8bc 2d53 b63d f770 ac3c
00000070: 4fdf 7fbd 1e1e 743d ae57 b53a 6237 b4bc
00000080: 294d b03d 921a 163c f8df 0fbd 6dec 5fbd
00000090: e511 d63d 8ace 3f3d adf7 03bd 7630 8cba
000000a0: 9aee b5bc 200f 9bbd 20aa 443d 0abd 9cbd
000000b0: bb3d 3a3d e84c e73b 6e2f af3c 53ee 6a3b
000000c0: 9607 40bd 2213 59bd b642 26bd 1221 983d
000000d0: 7eb4 c93d e2fc 8a3c 5e3f 923d 83c7 43bd
000000e0: f6f3 fa3b f720 2d3d c2e2 1b3d 6f49 e03c
000000f0: 9100 b13d 7715 c5bd f934 0dbd 63c8 fabc
00000100: 5f2c 863d 7239 debb 69d0 8bbd bb8d 35bd
00000110: 4e85 b3bd 1cb7 d03c 856f 53bc 959d 9abd
00000120: 7bae 763d 5a52 133d 304f 6c3d e72f 5dbd
00000130: e4fa a6bd 74dd c7bd d30b 11bc 8466 a9bd
00000140: a6ed 8fbd 316f 53bd 2f82 443d fe37 073d
00000150: ddc2 4b3d 8efd e63c 957f fe3c 105d a83c
00000160: 7723 c93c c0e4 063d 386e 30bc 4090 8ebd
00000170: d781 6ebd 8b5d 903d 3773 693d b131 a23d
00000180: 885f 47bd b145 ffbc 6c76 18bc 642e 3fbd
00000190: e62e 843d e323 e7bc af45 26bd d1d8 4f3d
000001a0: ec1e b7bd 595e 2a3d 8c52 213d a5e1 ceba
000001b0: eb0f 753d bf3e 513b 974d 89bd 837b 88bd
000001c0: 561e 4cbd cfb2 2fbd 7ade 483d 232a 83bd
000001d0: ba09 43bd 6171 2b3d 578a 92bd 2972 8c3d
000001e0: 98c2 113d ef21 5d3d 3f2d 5fbd 2f65 3b3d
000001f0: d522 e63c b4f6 8b3d 9ce7 5dbd 1036 69bd
00000200: 10be 463d 2638 d93b edef 813c f8aa 04bd
00000210: 5214 603d c13b 92bd b980 4dbd 193b cabd
00000220: 9019 80bc 1602 8dbc b85c 573d 3cd4 f6bc
00000230: d677 323d fd23 2a3d b97a 9abd bec1 f73c
00000240: 7964 703d eb37 963d 1c4a 843c 30b2 e4bc
00000250: 08d7 023d ad6e 823d a83e a0bb af4f 9b3c
00000260: 860e b7bd 117c 24bc 7a0d 013d fe35 29bc
00000270: c9e9 983d 4bb9 64bc 6c7e c9bc 1ba7 e63c
00000280: 988f ab3c f4e9 55bc f177 8c3b 080e ecbc
00000290: 94aa 573d c79b 753d 047a 84bd c8d2 8dbd
000002a0: b1d3 d73c d729 1ebd 1a2e afbc d9ee c83c
000002b0: 9294 8a3d 4536 aeba 81e3 773d 4ff1 fe3b
000002c0: 4794 643d e2d8 e3ba d949 df3c 8b49 be3c
000002d0: 27d6 d3bc 3e7b 153d fbfc 87bd c98d 59bd
000002e0: 1559 2b3d 9bb6 ba3c bdb4 a63c ddbf 023d
000002f0: 543d 94bd 1e92 193d 5263 043c 2db3 b63b
00000300: 60f1 3dbd cc3e d6bb 17c0 6abd 968c afbd
00000310: 3eac 97bc cd54 5e3d 0414 623d fe4f 76bd
00000320: e6d3 4c3c a523 3fbd fc89 163c a082 8a3d
00000330: 09c2 7dbd dab7 103d 3876 c33c 8473 4bbd
00000340: 19f7 1a3d 5425 993d b62e a9bc d08a 00bd
00000350: 3808 133d 7be6 8a3d 364c 4c3d f229 783c
00000360: 9c0b 11bd 0b44 35bd 3f5f cd3c d7e2 863d
00000370: a293 76bd 9795 c6bd be78 853d ac0a debd
00000380: 4956 83bd fe77 81bb 8cac 283d a2e9 ae3d
00000390: 0d21 2e3d 28cb 2c3d c7cb 4a39 5bb3 643d
000003a0: 1e2a 963d ce29 703d a45d ac3d ac89 d63c
000003b0: 0fe9 a13d 5e90 ce3c 25a1 ccbd 0bf3 a6bd
000003c0: 4a80 17bd 0ea1 01bd 9b18 b3bd 2981 a3bd
000003d0: e765 2a3c 0c17 3cbb 9abe 303d 68a0 a6bd
000003e0: 6fc9 a23d 1f5d 03bd 9225 a6bd 25a0 613d
000003f0: 18be 0cbb b0e8 a1bd 6fd8 40bd 3622 03bd
-0.06917506 -0.037353095 -0.08120577 -0.0431662 0.060372423 -0.0066892975 -0.025818875 0.09150631
-0.0206071 0.05381913 0.070742674 0.04512652 0.08320433 -0.0352775 -0.082569994 0.06919933
-0.045255784 0.08275873 0.077840984 0.0012719389 0.023792103 0.04818379 -0.043587755 -0.015173599
0.023383612 -0.024428697 0.08902583 0.02104996 -0.062468823 0.059599034 0.0013835335 -0.021999065
0.08608467 0.009161608 -0.035125703 -0.054668833 0.10452632 0.04682783 -0.032218624 -0.0010695595
-0.0222085 -0.07571244 0.048013806 -0.07653244 0.045469027 0.0070587285 0.02138492 0.0035847619
-0.046882235 -0.052996762 -0.040590964 0.07428183 0.09848879 0.016966287 0.071409926 -0.04779769
0.007658477 0.042267766 0.03805805 0.027378766 0.08642686 -0.09623235 -0.034474347 -0.03061313
0.06551432 -0.0067817504 -0.068268605 -0.044324618 -0.0876566 0.025477938 -0.012905006 -0.07549588
0.06022499 0.03596721 0.057692707 -0.05400076 -0.08153322 -0.09759036 -0.008852917 -0.082715064
-0.0702775 -0.051619712 0.047975715 0.033012383 0.049746383 0.028197076 0.031066695 0.020552188
0.024553044 0.032932997 -0.010768466 -0.06961107 -0.058229294 0.07049092 0.056994643 0.07919634
-0.04867509 -0.031161161 -0.009305578 -0.0466751 0.06454258 -0.028215354 -0.0405938 0.05074388
-0.08941445 0.041593883 0.039385363 -0.00157838 0.059829634 0.0031928269 -0.06704252 -0.06664183
-0.049833618 -0.042895135 0.049040295 -0.06404521 -0.047616698 0.041856173 -0.071552925 0.06857712
0.03558597 0.05398744 -0.05448651 0.045750793 0.028092781 0.06834164 -0.054175958 -0.056936324
0.0485211 0.006629008 0.015861476 -0.03238961 0.05470688 -0.071403034 -0.050171588 -0.09874553
-0.01563719 -0.017212909 0.052578658 -0.030130498 0.043571316 0.041538227 -0.07542939 0.03024375
0.05868957 0.07334884 0.01614862 -0.027916998 0.03194335 0.06368766 -0.0048902817 0.018958895
-0.08938317 -0.010039345 0.031506993 -0.010327814 0.07466466 -0.013960193 -0.024596415 0.028155854
0.020942494 -0.013056267 0.004286759 -0.028815284 0.05265291 0.059963014 -0.06468585 -0.06924969
0.02634606 -0.03861412 -0.021384288 0.024527954 0.06766619 -0.001329132 0.0605197 0.007780231
0.05580547 -0.0017383362 0.027256893 0.023228427 -0.025858952 0.036494486 -0.06640049 -0.053113732
0.041833002 0.022792151 0.020349855 0.031921256 -0.0723826 0.037492864 0.00808032 0.0055755586
-0.04637277 -0.0065382477 -0.057312097 -0.085717365 -0.018514749 0.05428009 0.05519487 -0.06013488
0.012501692 -0.046664853 0.0091881715 0.06763196 -0.061952624 0.035331585 0.023860082 -0.04967071
0.037833307 0.07477823 -0.020652156 -0.031382382 0.03589651 0.06782242 0.049877368 0.015146719
-0.035411462 -0.044254344 0.025069831 0.06586235 -0.060199387 -0.09696501 0.0651717 -0.10841879
-0.06412942 -0.0039510718 0.04118018 0.08540656 0.04251199 0.042185932 0.00019340134 0.05583511
0.07332252 0.058633618 0.08416298 0.026188694 0.079057805 0.025215324 -0.099916734 -0.081518255
-0.03698758 -0.031647734 -0.087449275 -0.0798362 0.010400272 -0.002870026 0.04315052 -0.08136064
0.07948577 -0.03207123 -0.08112635 0.055084366 -0.002147561 -0.0790571 -0.047081407 -0.032015048

fc2.bias f4 [128]
00000000: 14f5 973d afdb ea3c 15ef 823d b37b 2dbd
00000010: bd2a 3d3c f0d9 98bd 955a a5bd 9511 e7bc
00000020: a886 0fbd aa3d 803d 334e a4bd 30bc ffbc
00000030: 358e 93bd f42e 863c edd2 823d 5251 56bc
00000040: f4c3 18bc e315 623d 586d 543d 3623 773d
00000050: 413d 973d 2bad 483d b9f7 d93c ae09 22bd
00000060: 1a34 bc3c 2aa1 8dbd 99bf 8c3d 26a5 d93c
00000070: c611 62bc 49df a03d 0eac a6bd 71ee 643d
00000080: 95b1 5bbd f4b3 f1bc 3017 273d 7acf 4bbd
00000090: 61e9 9fbd 4044 96bc c797 8a3c e824 893d
000000a0: 1871 e93c 807e 9ebd d1ae 543d fb93 debb
000000b0: 7064 8ebd a3fe 853d f189 a6b8 efb6 a63c
000000c0: 9a66 473d 5606 a2bd 7a66 2e3d 1c91 e6bc
000000d0: 7175 75bb 2c7a 893c 80d4 19bd adee 76bd
000000e0: f586 41bb 5e62 b5bc b0ed 11bd aebd f4bc
000000f0: 8b2c 1c3d e8fb 90bd d4e9 37bd df42 9cbd
00000100: bfb4 7abd 7482 88bd 707b 89bd da5b 78bd
00000110: fc26 6dbd 226d 363d bb58 153b d512 c03d
00000120: e2bf f5bc 7a68 a53d f99b 4e3c 8c67 d93c
00000130: 5c23 613d 487c 08bd fb1c 15bb 83e9 a6bc
00000140: 01bc 99bb 5d94 af3d 8ca7 c93c fa3f 1dbd
00000150: a4e9 253d 11e3 b1bd 7b69 503d cd52 8b3d
00000160: 47d6 96bd 27dc d8bc 9bc4 c9bc d8dd 803d
00000170: 6c4b 10bd 18e5 5dbc fdd3 87bc 9b8a 63bd
00000180: b3d0 4fbc fe67 c43c 2b39 30bd f2ce 7b3d
00000190: 66a5 c9bd 0a09 443d ff72 adbc d028 853c
000001a0: bec5 8ebd 23aa 743d fc63 a9bc ab84 4fbd
000001b0: 0192 553d 40fb 83bc f5de afbd a540 74bd
000001c0: d2d1 f03c ec27 c7bc 04e1 573c f039 4abc
000001d0: 882d c8bc 4fb9 a6bd 6762 a23d 33e1 87ba
000001e0: 13a4 0e3d f3fa 993d 03a9 c3bc 04d5 283d
000001f0: 9d6c 7e3d 1f7b 8e3d ecc2 8e39 bc49 2a3c
0.07419792 0.028669206 0.063932575 -0.042354297 0.011545834 -0.07463443 -0.08073918 -0.028206626
-0.035040528 0.062617615 -0.08022728 -0.031217664 -0.07204858 0.01637981 0.06387887 -0.013080912
-0.009324063 0.055196654 0.05186209 0.060336314 0.0738473 0.04899327 0.026607381 -0.039560013
0.022974063 -0.06915505 0.06872482 0.026568007 -0.013798183 0.07855088 -0.081382856 0.055891458
-0.053636152 -0.029504754 0.040793598 -0.049758412 -0.07808185 -0.018343091 0.016918076 0.066964924
0.02849631 -0.07738972 0.05192453 -0.006792543 -0.06952751 0.06542709 -7.9411904e-05 0.020350901
0.048681833 -0.07911365 0.042578198 -0.028145365 -0.0037454034 0.016781889 -0.03755617 -0.060286213
-0.0029529904 -0.022141632 -0.035627067 -0.029875603 0.038128417 -0.07079297 -0.04490073 -0.07629942
-0.06120753 -0.06665507 -0.06712997 -0.06063447 -0.057898507 0.04453767 0.0022788483 0.09378592
-0.029998723 0.08076568 0.012610429 0.026538633 0.054965362 -0.03332165 -0.002275287 -0.020375019
-0.0046916013 0.0857322 0.024616025 -0.03839109 0.04050602 -0.086858876 0.050881844 0.06802902
-0.07365089 -0.026472164 -0.024629882 0.06292313 -0.035228178 -0.01354339 -0.016580576 -0.055552106
-0.012684035 0.023975369 -0.04302327 0.061476655 -0.098460004 0.047860183 -0.021172998 0.016254812
-0.0697131 0.059732568 -0.02067756 -0.05066363 0.052141193 -0.016111016 -0.085874476 -0.059631962
0.029396925 -0.024311028 0.0131762065 -0.012342915 -0.024435773 -0.081408136 0.07928925 -0.0010366797
0.034824442 0.07518568 -0.023884302 0.041218773 0.0621153 0.06957077 0.0002722958 0.010393556

fc3.weight f4 [1, 128]
00000000: 20d7 2636 73c0 f23b b91e 813b ead9 7ebc
00000010: 5a22 a63d cb78 223d 16b3 13bd f225 8d3d
00000020: 7f24 bf3b e6c2 ab3d 2fff 2ebd a43b f03b
00000030: 6728 7abd f49f 583d 06ab 633d 6214 b8bb
00000040: 5028 c03c 4b71 31bd 5524 11bd 587f babd
00000050: f2a3 c73d 2786 44bc 26b1 67ba a565 83bd
00000060: 9cdc 5dbd c77f 26bc 13da c3bd 3d51 b1bd
00000070: 3972 24bd 5d9b 3b3d b4de 2bbc a224 c0bd
00000080: 1fc1 83bd d13c 92bc 50ef 26bd 0596 2c3c
00000090: a1ee 423d 014f 84ba cef9 10bd 9b82 773d
000000a0: 6080 71bd fd78 26bd 2f1c 9a3d 11d3 ab3d
000000b0: 1742 98bb ec91 a23d c733 813d 7064 23bd
000000c0: f93f 07bb 90b1 a23b 00f2 0b3c 194f 93bc
000000d0: 7beb 3d3c 836c 8d3c 7080 993d c1ad 8bbd
000000e0: d895 35bd 5038 223d 4b85 adbd e887 963d
000000f0: 575f 7bbd 91ec 97bd 1b65 093d 0779 acbc
00000100: 5ea6 8a3d 9e07 803d 7b64 213d df28 543b
00000110: 223c 66bd 98da c73c 97ef 883c 573f ee3c
00000120: 7f4b 0e3d 6b16 193d 8c94 1fbd 885b 943c
00000130: 67e6 2a3d f6f8 5e3d 9d92 5f3d 0788 35bc
00000140: d259 4abb 175b 7b3d 372b 963d f977 40bd
00000150: e12c 7c3d efc9 50bc 30c8 f03c 8f16 9b3d
00000160: d05f 86bd 29a7 493c 6df0 eb3b 7ba3 9f3d
00000170: 3184 2dbd fac6 183d f09d 44bd b03a 09bd
00000180: da35 be3d f7ee e7bb ea60 1e3d b2fe 9f3c
00000190: 6f0b 39bd 9a1d 83bd a9a7 7f3d 3011 8b3d
000001a0: 548c 9dbd a7f4 483d 43df c3bc 24e9 29bb
000001b0: cec6 2c3c 9f42 d0bc 31f0 a2bd 8b63 be3c
000001c0: d777 7d3d 2ce5 0abc ae84 45bd 0ba0 cd3c
000001d0: 2fdd 69bc a6ef f43b 88d4 91bc fd60 f53c
000001e0: 906e 273a 5c17 5dbd 969a 79bd 94ab af3d
000001f0: ea85 d7bc 8781 3e3c e42f 063d 86c5 1f3d
2.4861147e-06 0.0074081956 0.00394043 -0.015554884 0.08112021 0.03966598 -0.03605946 0.06892003
0.005833208 0.08386783 -0.04272383 0.0073313285 -0.061073687 0.05288692 0.055583023 -0.005617664
0.023456722 -0.043320935 -0.03543504 -0.0910632 0.09748067 -0.011994875 -0.0008838348 -0.064158715
-0.054165468 -0.0101623 -0.09563079 -0.08658073 -0.040147994 0.045802463 -0.010490108 -0.09381987
-0.06433319 -0.017851265 -0.04075557 0.010533814 0.047590856 -0.0010094346 -0.035394482 0.06042729
-0.05896032 -0.040642727 0.07524907 0.08389867 -0.0046465504 0.07937989 0.06308704 -0.039890707
-0.0020637496 0.0049650148 0.008541584 -0.017982053 0.011591787 0.017263656 0.07495201 -0.0682025
-0.044332355 0.039604485 -0.08472689 0.07350141 -0.06137022 -0.07418168 0.033543687 -0.021053804
0.06770013 0.06251453 0.039402466 0.0032372994 -0.05620969 0.024396226 0.016715808 0.029082937
0.034739967 0.037374895 -0.038960025 0.018110052 0.041723635 0.054436646 0.05458318 -0.011079795
-0.003087629 0.061366167 0.07332461 -0.046989415 0.061566237 -0.012743457 0.029392332 0.07572662
-0.065612435 0.0123079205 0.007200292 0.07794853 -0.042362396 0.037299134 -0.048002183 -0.033503234
0.09287615 -0.0070780474 0.038666643 0.019530628 -0.04517692 -0.064021304 0.062415753 0.06790388
-0.07692781 0.049061444 -0.02391017 -0.0025926316 0.010545446 -0.025422392 -0.07955969 0.023240825
0.061881866 -0.00847749 -0.048222236 0.025100728 -0.014273926 0.0074748574 -0.017801538 0.029953474
0.00063870195 -0.053977355 -0.06093844 0.08577648 -0.026308972 0.011627561 0.032760516 0.039006732
